###################################################################################
###################################################################################

CNN + Seq-LSTM Model Summary ::
*******************************

Model: "sequential"
_________________________________________________________________
 Layer (type)                Output Shape              Param #   
=================================================================
 embedding (Embedding)       (None, 20, 100)           4478500   
                                                                 
 conv1d (Conv1D)             (None, 20, 128)           38528     
                                                                 
 max_pooling1d (MaxPooling1D  (None, 10, 128)          0         
 )                                                               
                                                                 
 dropout (Dropout)           (None, 10, 128)           0         
                                                                 
 lstm (LSTM)                 (None, 10, 128)           131584    
                                                                 
 dropout_1 (Dropout)         (None, 10, 128)           0         
                                                                 
 flatten (Flatten)           (None, 1280)              0         
                                                                 
 dense (Dense)               (None, 64)                81984     
                                                                 
 dropout_2 (Dropout)         (None, 64)                0         
                                                                 
 dense_1 (Dense)             (None, 32)                2080      
                                                                 
 dense_2 (Dense)             (None, 5)                 165       
                                                                 
=================================================================
Total params: 4,732,841
Trainable params: 4,732,841
Non-trainable params: 0
_________________________________________________________________

##############################################################################################
##############################################################################################
…
