###################################################################################
###################################################################################

CNN + Bi-LSTM Model Summary ::
******************************

Model: "sequential_1"
_________________________________________________________________
 Layer (type)                Output Shape              Param #   
=================================================================
 embedding_1 (Embedding)     (None, 31, 100)           5007800   
                                                                 
 conv1d_1 (Conv1D)           (None, 31, 128)           38528     
                                                                 
 max_pooling1d_1 (MaxPooling  (None, 15, 128)          0         
 1D)                                                             
                                                                 
 dropout_3 (Dropout)         (None, 15, 128)           0         
                                                                 
 bidirectional (Bidirectiona  (None, 15, 256)          263168    
 l)                                                              
                                                                 
 dropout_4 (Dropout)         (None, 15, 256)           0         
                                                                 
 flatten_1 (Flatten)         (None, 3840)              0         
                                                                 
 dense_3 (Dense)             (None, 64)                245824    
                                                                 
 dropout_5 (Dropout)         (None, 64)                0         
                                                                 
 dense_4 (Dense)             (None, 32)                2080      
                                                                 
 dense_5 (Dense)             (None, 5)                 165       
                                                                 
=================================================================
Total params: 5,557,565
Trainable params: 5,557,565
Non-trainable params: 0
_________________________________________________________________

##############################################################################################
##############################################################################################
…
