###################################################################################
###################################################################################

CNN + Seq-LSTM Model Summary ::
*******************************

Model: "sequential"
_________________________________________________________________
Layer (type)                 Output Shape              Param #   
=================================================================
embedding (Embedding)        (None, 21, 100)           2585100   
_________________________________________________________________
conv1d (Conv1D)              (None, 21, 64)            19264     
_________________________________________________________________
max_pooling1d (MaxPooling1D) (None, 10, 64)            0         
_________________________________________________________________
dropout (Dropout)            (None, 10, 64)            0         
_________________________________________________________________
lstm (LSTM)                  (None, 10, 128)           98816     
_________________________________________________________________
dropout_1 (Dropout)          (None, 10, 128)           0         
_________________________________________________________________
flatten (Flatten)            (None, 1280)              0         
_________________________________________________________________
dense (Dense)                (None, 128)               163968    
_________________________________________________________________
dropout_2 (Dropout)          (None, 128)               0         
_________________________________________________________________
dense_1 (Dense)              (None, 64)                8256      
_________________________________________________________________
dense_2 (Dense)              (None, 32)                2080      
_________________________________________________________________
dense_3 (Dense)              (None, 2)                 66        
=================================================================
Total params: 2,877,550
Trainable params: 2,877,550
Non-trainable params: 0
_________________________________________________________________

##############################################################################################
##############################################################################################
…
