###################################################################################
###################################################################################

CNN + Seq-LSTM Model Summary ::
*******************************

Model: "sequential"
_________________________________________________________________
Layer (type)                 Output Shape              Param #   
=================================================================
embedding (Embedding)        (None, 22, 100)           3058800   
_________________________________________________________________
conv1d (Conv1D)              (None, 22, 64)            19264     
_________________________________________________________________
max_pooling1d (MaxPooling1D) (None, 11, 64)            0         
_________________________________________________________________
dropout (Dropout)            (None, 11, 64)            0         
_________________________________________________________________
lstm (LSTM)                  (None, 11, 128)           98816     
_________________________________________________________________
dropout_1 (Dropout)          (None, 11, 128)           0         
_________________________________________________________________
flatten (Flatten)            (None, 1408)              0         
_________________________________________________________________
dense (Dense)                (None, 128)               180352    
_________________________________________________________________
dropout_2 (Dropout)          (None, 128)               0         
_________________________________________________________________
dense_1 (Dense)              (None, 64)                8256      
_________________________________________________________________
dense_2 (Dense)              (None, 32)                2080      
_________________________________________________________________
dense_3 (Dense)              (None, 2)                 66        
=================================================================
Total params: 3,367,634
Trainable params: 3,367,634
Non-trainable params: 0
_________________________________________________________________

##############################################################################################
##############################################################################################
…
